…
I1101 00:08:30.055661 12715 upgrade_proto.cpp:67] Attempting to upgrade input file specified using deprecated input fields: iris_deploy.prototxt
I1101 00:08:30.055676 12715 upgrade_proto.cpp:70] Successfully upgraded file specified using deprecated input fields.
W1101 00:08:30.055680 12715 upgrade_proto.cpp:72] Note that future Caffe releases will only support input layers and not input fields.
I1101 00:08:30.055753 12715 net.cpp:51] Initializing net from parameters: 
name: "IrisNet"
state {
  phase: TEST
  level: 0
}
layer {
  name: "input"
  type: "Input"
  top: "data"
  input_param {
    shape {
      dim: 1
      dim: 1
      dim: 1
      dim: 4
    }
  }
}
layer {
  name: "ip1"
  type: "InnerProduct"
  bottom: "data"
  top: "ip1"
  param {
    lr_mult: 1
  }
  param {
    lr_mult: 2
  }
  inner_product_param {
    num_output: 50
    weight_filler {
      type: "xavier"
    }
    bias_filler {
      type: "constant"
    }
  }
}
layer {
  name: "relu1"
  type: "ReLU"
  bottom: "ip1"
  top: "ip1"
}
layer {
  name: "drop1"
  type: "Dropout"
  bottom: "ip1"
  top: "ip1"
  dropout_param {
    dropout_ratio: 0.5
  }
}
layer {
  name: "ip2"
  type: "InnerProduct"
  bottom: "ip1"
  top: "ip2"
  param {
    lr_mult: 1
  }
  param {
    lr_mult: 2
  }
  inner_product_param {
    num_output: 50
    weight_filler {
      type: "xavier"
    }
    bias_filler {
      type: "constant"
    }
  }
}
layer {
  name: "drop2"
  type: "Dropout"
  bottom: "ip2"
  top: "ip2"
  dropout_param {
    dropout_ratio: 0.4
  }
}
layer {
  name: "ip3"
  type: "InnerProduct"
  bottom: "ip2"
  top: "ip3"
  param {
    lr_mult: 1
  }
  param {
    lr_mult: 2
  }
  inner_product_param {
    num_output: 3
    weight_filler {
      type: "xavier"
    }
    bias_filler {
      type: "constant"
    }
  }
}
layer {
  name: "drop3"
  type: "Dropout"
  bottom: "ip3"
  top: "ip3"
  dropout_param {
    dropout_ratio: 0.3
  }
}
I1101 00:08:30.055780 12715 layer_factory.hpp:77] Creating layer input
I1101 00:08:30.055789 12715 net.cpp:84] Creating Layer input
I1101 00:08:30.055796 12715 net.cpp:380] input -> data
I1101 00:08:30.055811 12715 net.cpp:122] Setting up input
I1101 00:08:30.055819 12715 net.cpp:129] Top shape: 1 1 1 4 (4)
I1101 00:08:30.055821 12715 net.cpp:137] Memory required for data: 16
I1101 00:08:30.055825 12715 layer_factory.hpp:77] Creating layer ip1
I1101 00:08:30.055831 12715 net.cpp:84] Creating Layer ip1
I1101 00:08:30.055835 12715 net.cpp:406] ip1 <- data
I1101 00:08:30.055840 12715 net.cpp:380] ip1 -> ip1
I1101 00:08:30.056249 12715 net.cpp:122] Setting up ip1
I1101 00:08:30.056258 12715 net.cpp:129] Top shape: 1 50 (50)
I1101 00:08:30.056262 12715 net.cpp:137] Memory required for data: 216
I1101 00:08:30.056272 12715 layer_factory.hpp:77] Creating layer relu1
I1101 00:08:30.056277 12715 net.cpp:84] Creating Layer relu1
I1101 00:08:30.056282 12715 net.cpp:406] relu1 <- ip1
I1101 00:08:30.056285 12715 net.cpp:367] relu1 -> ip1 (in-place)
I1101 00:08:30.056293 12715 net.cpp:122] Setting up relu1
I1101 00:08:30.056296 12715 net.cpp:129] Top shape: 1 50 (50)
I1101 00:08:30.056299 12715 net.cpp:137] Memory required for data: 416
I1101 00:08:30.056303 12715 layer_factory.hpp:77] Creating layer drop1
I1101 00:08:30.056308 12715 net.cpp:84] Creating Layer drop1
I1101 00:08:30.056318 12715 net.cpp:406] drop1 <- ip1
I1101 00:08:30.056322 12715 net.cpp:367] drop1 -> ip1 (in-place)
I1101 00:08:30.056329 12715 net.cpp:122] Setting up drop1
I1101 00:08:30.056332 12715 net.cpp:129] Top shape: 1 50 (50)
I1101 00:08:30.056335 12715 net.cpp:137] Memory required for data: 616
I1101 00:08:30.056339 12715 layer_factory.hpp:77] Creating layer ip2
I1101 00:08:30.056344 12715 net.cpp:84] Creating Layer ip2
I1101 00:08:30.056346 12715 net.cpp:406] ip2 <- ip1
I1101 00:08:30.056351 12715 net.cpp:380] ip2 -> ip2
I1101 00:08:30.056378 12715 net.cpp:122] Setting up ip2
I1101 00:08:30.056383 12715 net.cpp:129] Top shape: 1 50 (50)
I1101 00:08:30.056386 12715 net.cpp:137] Memory required for data: 816
I1101 00:08:30.056392 12715 layer_factory.hpp:77] Creating layer drop2
I1101 00:08:30.056396 12715 net.cpp:84] Creating Layer drop2
I1101 00:08:30.056399 12715 net.cpp:406] drop2 <- ip2
I1101 00:08:30.056404 12715 net.cpp:367] drop2 -> ip2 (in-place)
I1101 00:08:30.056409 12715 net.cpp:122] Setting up drop2
I1101 00:08:30.056413 12715 net.cpp:129] Top shape: 1 50 (50)
I1101 00:08:30.056416 12715 net.cpp:137] Memory required for data: 1016
I1101 00:08:30.056419 12715 layer_factory.hpp:77] Creating layer ip3
I1101 00:08:30.056423 12715 net.cpp:84] Creating Layer ip3
I1101 00:08:30.056427 12715 net.cpp:406] ip3 <- ip2
I1101 00:08:30.056454 12715 net.cpp:380] ip3 -> ip3
I1101 00:08:30.056468 12715 net.cpp:122] Setting up ip3
I1101 00:08:30.056474 12715 net.cpp:129] Top shape: 1 3 (3)
I1101 00:08:30.056478 12715 net.cpp:137] Memory required for data: 1028
I1101 00:08:30.056483 12715 layer_factory.hpp:77] Creating layer drop3
I1101 00:08:30.056488 12715 net.cpp:84] Creating Layer drop3
I1101 00:08:30.056491 12715 net.cpp:406] drop3 <- ip3
I1101 00:08:30.056495 12715 net.cpp:367] drop3 -> ip3 (in-place)
I1101 00:08:30.056501 12715 net.cpp:122] Setting up drop3
I1101 00:08:30.056505 12715 net.cpp:129] Top shape: 1 3 (3)
I1101 00:08:30.056509 12715 net.cpp:137] Memory required for data: 1040
I1101 00:08:30.056511 12715 net.cpp:200] drop3 does not need backward computation.
I1101 00:08:30.056514 12715 net.cpp:200] ip3 does not need backward computation.
I1101 00:08:30.056519 12715 net.cpp:200] drop2 does not need backward computation.
I1101 00:08:30.056521 12715 net.cpp:200] ip2 does not need backward computation.
…
W1101 00:08:30.282739 12715 _caffe.cpp:140] Use this instead (with the named "weights" parameter):
W1101 00:08:30.282743 12715 _caffe.cpp:142] Net('iris_train_test.prototxt', 1, weights='iris__iter_1000000.caffemodel')
I1101 00:08:30.282861 12715 net.cpp:294] The NetState phase (1) differed from the phase (0) specified by a rule in layer iris
I1101 00:08:30.282927 12715 net.cpp:51] Initializing net from parameters: 
name: "IrisNet"
state {
  phase: TEST
  level: 0
}
layer {
  name: "iris"
  type: "HDF5Data"
  top: "data"
  top: "label"
  include {
    phase: TEST
  }
  hdf5_data_param {
    source: "iris_test_data.txt"
    batch_size: 1
  }
}
layer {
  name: "ip1"
  type: "InnerProduct"
  bottom: "data"
  top: "ip1"
  param {
    lr_mult: 1
  }
  param {
    lr_mult: 2
  }
  inner_product_param {
    num_output: 50
    weight_filler {
      type: "xavier"
    }
    bias_filler {
      type: "constant"
    }
  }
}
layer {
  name: "relu1"
  type: "ReLU"
  bottom: "ip1"
  top: "ip1"
}
layer {
  name: "drop1"
  type: "Dropout"
  bottom: "ip1"
  top: "ip1"
  dropout_param {
    dropout_ratio: 0.5
  }
}
layer {
  name: "ip2"
  type: "InnerProduct"
  bottom: "ip1"
  top: "ip2"
  param {
    lr_mult: 1
  }
  param {
    lr_mult: 2
  }
  inner_product_param {
    num_output: 50
    weight_filler {
      type: "xavier"
    }
    bias_filler {
      type: "constant"
    }
  }
}
layer {
  name: "drop2"
  type: "Dropout"
  bottom: "ip2"
  top: "ip2"
  dropout_param {
    dropout_ratio: 0.4
  }
}
layer {
  name: "ip3"
  type: "InnerProduct"
  bottom: "ip2"
  top: "ip3"
  param {
    lr_mult: 1
  }
  param {
    lr_mult: 2
  }
  inner_product_param {
    num_output: 3
    weight_filler {
      type: "xavier"
    }
    bias_filler {
      type: "constant"
    }
  }
}
layer {
  name: "drop3"
  type: "Dropout"
  bottom: "ip3"
  top: "ip3"
  dropout_param {
    dropout_ratio: 0.3
  }
}
layer {
  name: "loss"
  type: "SigmoidCrossEntropyLoss"
  bottom: "ip3"
  bottom: "label"
  top: "loss"
}
I1101 00:08:30.282958 12715 layer_factory.hpp:77] Creating layer iris
I1101 00:08:30.282968 12715 net.cpp:84] Creating Layer iris
I1101 00:08:30.282971 12715 net.cpp:380] iris -> data
I1101 00:08:30.282981 12715 net.cpp:380] iris -> label
I1101 00:08:30.282987 12715 hdf5_data_layer.cpp:80] Loading list of HDF5 filenames from: iris_test_data.txt
I1101 00:08:30.282999 12715 hdf5_data_layer.cpp:94] Number of HDF5 files: 1
I1101 00:08:30.283221 12715 hdf5.cpp:32] Datatype class: H5T_FLOAT
I1101 00:08:30.283365 12715 net.cpp:122] Setting up iris
I1101 00:08:30.283377 12715 net.cpp:129] Top shape: 1 1 1 4 (4)
I1101 00:08:30.283382 12715 net.cpp:129] Top shape: 1 3 (3)
I1101 00:08:30.283385 12715 net.cpp:137] Memory required for data: 28
I1101 00:08:30.283390 12715 layer_factory.hpp:77] Creating layer ip1
I1101 00:08:30.283397 12715 net.cpp:84] Creating Layer ip1
I1101 00:08:30.283401 12715 net.cpp:406] ip1 <- data
I1101 00:08:30.283407 12715 net.cpp:380] ip1 -> ip1
I1101 00:08:30.283424 12715 net.cpp:122] Setting up ip1
I1101 00:08:30.283430 12715 net.cpp:129] Top shape: 1 50 (50)
I1101 00:08:30.283433 12715 net.cpp:137] Memory required for data: 228
I1101 00:08:30.283442 12715 layer_factory.hpp:77] Creating layer relu1
I1101 00:08:30.283447 12715 net.cpp:84] Creating Layer relu1
I1101 00:08:30.283452 12715 net.cpp:406] relu1 <- ip1
I1101 00:08:30.283455 12715 net.cpp:367] relu1 -> ip1 (in-place)
I1101 00:08:30.283462 12715 net.cpp:122] Setting up relu1
I1101 00:08:30.283465 12715 net.cpp:129] Top shape: 1 50 (50)
I1101 00:08:30.283468 12715 net.cpp:137] Memory required for data: 428
I1101 00:08:30.283471 12715 layer_factory.hpp:77] Creating layer drop1
I1101 00:08:30.283476 12715 net.cpp:84] Creating Layer drop1
I1101 00:08:30.283479 12715 net.cpp:406] drop1 <- ip1
I1101 00:08:30.283484 12715 net.cpp:367] drop1 -> ip1 (in-place)
I1101 00:08:30.283490 12715 net.cpp:122] Setting up drop1
I1101 00:08:30.283494 12715 net.cpp:129] Top shape: 1 50 (50)
I1101 00:08:30.283498 12715 net.cpp:137] Memory required for data: 628
I1101 00:08:30.283500 12715 layer_factory.hpp:77] Creating layer ip2
I1101 00:08:30.283505 12715 net.cpp:84] Creating Layer ip2
I1101 00:08:30.283509 12715 net.cpp:406] ip2 <- ip1
I1101 00:08:30.283514 12715 net.cpp:380] ip2 -> ip2
I1101 00:08:30.283538 12715 net.cpp:122] Setting up ip2
I1101 00:08:30.283543 12715 net.cpp:129] Top shape: 1 50 (50)
I1101 00:08:30.283545 12715 net.cpp:137] Memory required for data: 828
I1101 00:08:30.283552 12715 layer_factory.hpp:77] Creating layer drop2
I1101 00:08:30.283556 12715 net.cpp:84] Creating Layer drop2
I1101 00:08:30.283560 12715 net.cpp:406] drop2 <- ip2
I1101 00:08:30.283563 12715 net.cpp:367] drop2 -> ip2 (in-place)
I1101 00:08:30.283568 12715 net.cpp:122] Setting up drop2
I1101 00:08:30.283573 12715 net.cpp:129] Top shape: 1 50 (50)
I1101 00:08:30.283576 12715 net.cpp:137] Memory required for data: 1028
I1101 00:08:30.283578 12715 layer_factory.hpp:77] Creating layer ip3
I1101 00:08:30.283583 12715 net.cpp:84] Creating Layer ip3
I1101 00:08:30.283586 12715 net.cpp:406] ip3 <- ip2
I1101 00:08:30.283591 12715 net.cpp:380] ip3 -> ip3
I1101 00:08:30.283607 12715 net.cpp:122] Setting up ip3
I1101 00:08:30.283612 12715 net.cpp:129] Top shape: 1 3 (3)
I1101 00:08:30.283615 12715 net.cpp:137] Memory required for data: 1040
I1101 00:08:30.283622 12715 layer_factory.hpp:77] Creating layer drop3
I1101 00:08:30.283627 12715 net.cpp:84] Creating Layer drop3
I1101 00:08:30.283629 12715 net.cpp:406] drop3 <- ip3
I1101 00:08:30.283634 12715 net.cpp:367] drop3 -> ip3 (in-place)
I1101 00:08:30.283639 12715 net.cpp:122] Setting up drop3
I1101 00:08:30.283643 12715 net.cpp:129] Top shape: 1 3 (3)
I1101 00:08:30.283646 12715 net.cpp:137] Memory required for data: 1052
I1101 00:08:30.283649 12715 layer_factory.hpp:77] Creating layer loss
I1101 00:08:30.283655 12715 net.cpp:84] Creating Layer loss
I1101 00:08:30.283658 12715 net.cpp:406] loss <- ip3
I1101 00:08:30.283663 12715 net.cpp:406] loss <- label
I1101 00:08:30.283666 12715 net.cpp:380] loss -> loss
I1101 00:08:30.283674 12715 net.cpp:122] Setting up loss
…
